{
    "format": "graph-model",
    "generatedBy": "TensorFlow.js v2.8.0",
    "convertedBy": "TensorFlow.js Converter v2.8.0",
    "modelTopology": {
      "model_config": {
        "class_name": "Sequential",
        "config": {
          "name": "sequential",
          "layers": [
            {
              "class_name": "Dense",
              "config": {
                "name": "dense",
                "trainable": true,
                "batch_input_shape": [null, 784],
                "dtype": "float32",
                "units": 128,
                "activation": "relu",
                "use_bias": true,
                "kernel_initializer": {
                  "class_name": "GlorotUniform",
                  "config": {
                    "seed": null
                  }
                },
                "bias_initializer": {
                  "class_name": "Zeros",
                  "config": {}
                },
                "kernel_regularizer": null,
                "bias_regularizer": null,
                "activity_regularizer": null,
                "kernel_constraint": null,
                "bias_constraint": null
              }
            },
            {
              "class_name": "Dense",
              "config": {
                "name": "dense_1",
                "trainable": true,
                "dtype": "float32",
                "units": 10,
                "activation": "softmax",
                "use_bias": true,
                "kernel_initializer": {
                  "class_name": "GlorotUniform",
                  "config": {
                    "seed": null
                  }
                },
                "bias_initializer": {
                  "class_name": "Zeros",
                  "config": {}
                },
                "kernel_regularizer": null,
                "bias_regularizer": null,
                "activity_regularizer": null,
                "kernel_constraint": null,
                "bias_constraint": null
              }
            }
          ]
        }
      },
      "backend": "tensorflow",
      "keras_version": "2.8.0"
    },
    "weightsManifest": [
      {
        "paths": ["group1-shard1of1.bin"],
        "weights": [
          {
            "name": "dense/kernel",
            "shape": [784, 128],
            "dtype": "float32"
          },
          {
            "name": "dense/bias",
            "shape": [128],
            "dtype": "float32"
          },
          {
            "name": "dense_1/kernel",
            "shape": [128, 10],
            "dtype": "float32"
          },
          {
            "name": "dense_1/bias",
            "shape": [10],
            "dtype": "float32"
          }
        ]
      }
    ]
  }
  